Image_LCA_08_18_2024_23_17_03/SparseCoding_08_18_2024_23_17_03.pt (torch, 34414 bytes, 1 tensors)

weights f4 [32, 3, 9, 9]
000000 cf 4c 2a bc 52 84 ef bb 4e 79 c4 bb ea 11 68 bb
       -0.010394289 -0.007309475 -0.005995906 -0.0035411068
000010 0f 9b ca 3b 9c a5 e4 3a 48 eb 39 bc aa d9 04 bd
       0.006183035 0.0017444375 -0.011347599 -0.032434143
000020 c3 24 29 bc 12 f3 3f 3b 45 30 53 bc 0f 64 ae bc
       -0.010323706 0.0029289168 -0.012889926 -0.021287946
000030 98 55 51 3a c7 99 9e 3b 1c 7c 64 bc a0 8e 7c bc
       0.0007985472 0.004840109 -0.013945606 -0.015414864
000040 33 00 00 bd f8 7f 02 3d 8c f3 7f ba 16 b7 c7 bc
       -0.03125019 0.03186032 -0.00097637693 -0.024379294
000050 70 a7 15 bc 79 75 0f bc 7c 47 f1 bc 8b 70 25 bd
       -0.0091341585 -0.008756035 -0.029453032 -0.040390532
000060 38 98 08 3b f9 c2 1e 3c d0 e6 5f 3d f0 78 da bd
       0.0020842683 0.00969004 0.05466348 -0.10667598
000070 d1 9c 9c bd 09 bb 37 bd e7 e6 87 bd 75 e2 2c bd
       -0.07647098 -0.044856105 -0.06635838 -0.042208154
000080 8b 2b 5d bc d0 e5 19 bb 72 d0 bd bc a0 50 38 3b
       -0.013499151 -0.0023482926 -0.023170684 0.0028124228
000090 36 fb 49 be 0f 28 7a be e8 e5 5b be b6 e8 2f be
       -0.19724736 -0.24429344 -0.21474421 -0.17178616
0000a0 b4 51 b9 bd 68 25 b5 bd 01 d9 ba bd 6a ff c2 bd
       -0.09048787 -0.08845025 -0.091234215 -0.095213726
0000b0 5b 08 d3 bd 35 15 16 3d 47 38 4d 3d 26 7f e5 3c
       -0.10304328 0.03664132 0.0501025 0.02801473
0000c0 e4 7d 5d bc 90 4f ed bb 8c 77 ce 3c 64 e9 6c 3d
       -0.013518784 -0.0072421506 0.025203489 0.057839766
0000d0 da 5f 02 3d 89 5f c3 3c 73 f6 a7 3d 2f 14 02 3e
       0.031829692 0.023849266 0.08201303 0.12703012
0000e0 9e 1d f4 3d 6f d9 c0 3d fa ba 69 3d 7b 74 91 3d
       0.119197115 0.09416472 0.05706308 0.07102295
0000f0 6e 7c 6b 3d 7a eb 2a 3d 55 fb 49 3d 58 d1 49 3d
       0.057491712 0.041728474 0.049311955 0.04927191
000100 f3 58 72 3d d6 3a 6d 3d 3d a0 9c 3d d7 9f 87 3d
       0.05916686 0.05791744 0.076477505 0.06622284
000110 d4 d5 2e 3d f1 ce df 3c e2 d2 ac 3c 20 65 4a 3d
       0.04268439 0.027320357 0.02109665 0.049412847
000120 90 d5 01 3d b7 32 ef 3c f6 ef 89 3c 48 22 22 3d
       0.03169781 0.029198987 0.016838055 0.039583474
000130 fd 07 e9 3c 64 dc d7 3c ad 5d 14 3d 08 5e 60 3c
       0.028446192 0.026350208 0.03622215 0.013694294
000140 05 6c e0 3c f1 d7 76 bc 35 2b 24 bc 52 32 49 bc
       0.027395258 -0.015066133 -0.010020067 -0.012280064
000150 fc 6a bc bb e5 a1 a2 3b b8 af 40 bb af 53 35 bc
       -0.005750058 0.004963147 -0.0029401612 -0.011067315
000160 1a da 02 bd 02 91 03 bc db 1f 1f 3c 97 36 3a bc
       -0.03194628 -0.008030178 0.009712185 -0.011365554
000170 30 90 9b bc d2 d6 d6 3a f1 22 ec 3b 69 4c 6e bc
       -0.018989652 0.0016390926 0.007206314 -0.014544585
000180 38 7b 89 bc 68 7a f7 bc 4b fd 1c 3d e8 b7 74 3c
       -0.016782388 -0.030209735 0.038327496 0.014936425
000190 c1 b1 03 bc fa e1 9e ba 80 5c ab 3a cf 69 b6 bc
       -0.008037985 -0.001212179 0.0013073832 -0.02226725
0001a0 16 c6 14 bd a1 73 bf 3b 09 39 91 3c a2 61 88 3d
       -0.036321722 0.0058426415 0.017727392 0.06659247
0001b0 01 30 bd bd c7 57 7e bd b5 6f 1a bd f4 8d 77 bd
       -0.09237672 -0.06209543 -0.03770419 -0.06043811
0001c0 de 10 1f bd 4d 30 31 bc ad 2f ac ba 49 41 a0 bc
       -0.038834445 -0.010814738 -0.0013136767 -0.01956238
0001d0 60 c8 f5 3b 9e 1c 3b be 09 e8 6e be e0 d5 53 be
       0.007500693 -0.18272635 -0.23330702 -0.20687056
0001e0 6d 32 2f be cb 08 b1 bd af cc bb bd d6 89 b4 bd
       -0.1710908 -0.08644255 -0.091699 -0.088153526
0001f0 91 7f c2 bd c0 05 ce bd 83 84 4a 3d 22 6a 72 3d
       -0.094969876 -0.100596905 0.04944278 0.059183247
000200 dd ad 08 3d 85 7b 60 bc 79 41 2d bc f3 ba ab 3c
       0.033368934 -0.013701324 -0.010574692 0.020963168
000210 60 57 71 3d 84 0c 11 3d e9 c3 c5 3c f9 b2 bb 3d
       0.058921218 0.035412326 0.024141269 0.09164996
000220 d4 20 06 3e 24 e9 fb 3d ba 00 c3 3d 9a 21 5a 3d
       0.1309846 0.123003274 0.09521623 0.0532547
000230 58 c8 84 3d f3 27 70 3d dd 92 2c 3d 8a ae 4c 3d
       0.06483525 0.05863185 0.042132247 0.04997114
000240 80 6e 52 3d 5b 7a 73 3d 59 62 70 3d 7c c3 a4 3d
       0.051374912 0.05944286 0.05868754 0.08045098
000250 05 c7 82 3d 3c 1c 22 3d ef d9 cb 3c 02 34 c4 3c
       0.06385616 0.039577708 0.024884192 0.02395058
000260 98 1d 43 3d b0 8b f5 3c 99 05 f8 3c 3b 79 84 3c
       0.047635645 0.029973835 0.030276107 0.016171088
000270 17 66 2d 3d 61 f1 ce 3c 4d f9 be 3c b7 8d 10 3d
       0.04233369 0.025261583 0.023312235 0.0352914
000280 92 63 83 3c 0b e6 c4 3c f4 08 74 bc 49 f8 84 bc
       0.01603869 0.024035474 -0.014894713 -0.016231673
000290 5e 84 7e bc 08 ac 5d bc 7e d4 da ba 8a 83 fa bb
       -0.0155344885 -0.013529785 -0.0016695408 -0.007645075
0002a0 20 99 74 bc 1c 05 0a bd 3f 53 24 bc 90 c0 08 3c
       -0.014929086 -0.03369628 -0.010029613 0.008346692
0002b0 82 92 5b bc df c6 b9 bc 77 96 61 bb f3 89 c1 ba
       -0.013401629 -0.022677837 -0.003442196 -0.0014765844
0002c0 4f fc a7 bc 92 61 c0 bc 53 56 fd bc fe 65 0f 3d
       -0.020506052 -0.023484025 -0.030924952 0.035009377
0002d0 10 83 80 3c c1 c1 01 bc e3 60 bc 39 cd fd df ba
       0.015687495 -0.00791973 0.0003593034 -0.0017089188
0002e0 96 d3 de bc b4 e9 2a bd 4c 24 a9 ba 31 59 8c 3c
       -0.027200501 -0.041726783 -0.0012904494 0.017132374
0002f0 17 5f 7f 3d 18 47 ae bd 22 82 5a bd a8 0c fb bc
       0.062346544 -0.08509654 -0.05334676 -0.030645683
000300 5f cf 67 bd 06 4c 29 bd b4 34 75 bc 4f 18 92 bb
       -0.05659425 -0.041332267 -0.014966179 -0.004458464
000310 e8 e9 88 bc 21 2c 20 3c db 05 2b be fc 59 5c be
       -0.016713098 0.009776146 -0.16701452 -0.21518701
000320 1d 2e 43 be e7 98 26 be 93 2f ad bd fa 60 b8 bd
       -0.1906056 -0.16269265 -0.0845634 -0.09002872
000330 f6 f6 b0 bd 5f f7 b0 bd 0d e0 b7 bd 33 d7 53 3d
       -0.08640854 -0.08640932 -0.08978281 0.0517189
000340 6a c2 7c 3d ed 0e 07 3d cb ad 6e bc 80 01 97 bc
       0.061708845 0.03297322 -0.014567803 -0.018433332
000350 9f 5f 5a 3c 98 77 58 3d 38 92 00 3d 67 84 c4 3c
       0.013328462 0.05284843 0.031389445 0.023988916
000360 8d fc b1 3d 98 8c 01 3e b8 f9 eb 3d e7 55 af 3d
       0.08690748 0.12651289 0.115222394 0.085613064
000370 92 ce 1f 3d 52 04 58 3d c3 b0 44 3d 97 da 1e 3d
       0.03901536 0.052738495 0.048020136 0.038782682
000380 45 3f 41 3d d6 a8 41 3d 17 08 58 3d ea 6c 58 3d
       0.04717948 0.047280155 0.05274209 0.052838244
000390 c2 36 8c 3d 57 f3 52 3d 57 9d de 3c 6c 6d 9b 3c
       0.06846382 0.0515016 0.027174635 0.018973075
0003a0 aa 86 92 3c ab 9c 3a 3d e4 3d db 3c b2 d2 d1 3c
       0.017886478 0.045559566 0.02676291 0.025613163
0003b0 d8 f7 71 3c a5 08 0a 3d 3d 31 a3 3c c0 64 9c 3c
       0.014768563 0.03369965 0.01992094 0.01909101
0003c0 cf 10 e7 3c 33 ff 38 3c c6 dd a7 3c 8a c4 9e 3d
       0.028206257 0.011291313 0.020491492 0.077523306
0003d0 15 72 e8 3d 9e ea e7 3d 68 6c 12 3e 0b 4d 1c 3e
       0.113498844 0.113240466 0.14299166 0.15263765
0003e0 8c 53 20 3e 47 83 1d 3e ce 2c 03 3e ba 64 b4 3d
       0.1565687 0.1538211 0.1281006 0.088082746
0003f0 e0 83 c1 3d b7 47 e3 3d 4d b0 fd 3d 20 80 e0 3d
       0.09448981 0.11097663 0.12387142 0.10961938
